practice_torch/tiny_lm.pth (torch, 6097 bytes, 7 tensors)

embed.weight f4 [8, 16]
0	0xbfc0c745	-1.5060812
1	0x3f9296d6	1.1452281
2	0x3fd009d4	1.6252999
3	0x3f8cb4b5	1.0992647
4	0xbf3eaaca	-0.74479353
5	0xbf2fd4f7	-0.68684334
6	0x3ff6f3af	1.9293116
7	0xbeae7419	-0.3407295
8	0x3eaba83c	0.3352679
9	0x3f5e5709	0.86851555
10	0x3f91d980	1.1394501
11	0x3e5f4683	0.21804242
12	0x3ecea630	0.40361166
13	0xbef5d60b	-0.48014864
14	0x3e356f6b	0.17718284
15	0xbf5d2f78	-0.86400557
16	0x3f052eb5	0.52024394
17	0xbf001931	-0.5003844
18	0xbe5b2e02	-0.2140427
19	0x3f5ea8fb	0.86976594
20	0x3fda9f54	1.7079873
21	0x3fb65e0e	1.4247453
22	0xbf49dc5d	-0.7885187
23	0xc00ab55e	-2.1673198
24	0xbd019191	-0.031632964
25	0x3f7584fe	0.95906055
26	0x3f3a7bdd	0.7284525
27	0xbef91afe	-0.48653406
28	0x3f86fd8e	1.0546129
29	0xbf9bfcd7	-1.2186536
30	0xbea15be1	-0.3151541
31	0x3dbf925d	0.093540885
32	0xbec4b401	-0.38418582
33	0xbdc25afd	-0.09490011
34	0x4015286e	2.3305926
35	0x3f051186	0.51979864
36	0x3f9a5680	1.2057648
37	0x3d72aa9b	0.059244733
38	0xbf616428	-0.8804345
39	0x3f7d9006	0.9904789
40	0x3eab5c00	0.33468628
41	0x3f5fb63b	0.87387437
42	0x3eb53d4b	0.35398325
43	0xbf3a387b	-0.7274243
44	0xbea4978e	-0.32146877
45	0xbf848992	-1.0354483
46	0xbfaefbf1	-1.3670636
47	0x3fa887a9	1.31664
48	0xbeaca408	-0.33718896
49	0xbf8d8b96	-1.1058223
50	0xbf2a1e96	-0.6645292
51	0xc0071aaa	-2.1110024
52	0x3fa2423b	1.2676462
53	0x3f85085a	1.0393174
54	0x3f3782d2	0.7168399
55	0x3f4aa1e0	0.7915325
56	0xbf23fd13	-0.64058036
57	0xbf4bede1	-0.7965985
58	0x3fc5d155	1.5454508
59	0xbe5b47e2	-0.2141414
60	0xbea097b5	-0.31365743
61	0xbfe21733	-1.766333
62	0x3ea10ed7	0.31456634
63	0x3ece5cee	0.40305275
64	0x3f0565b0	0.5210829
65	0xbf51ecac	-0.8200176
66	0xbeaa37b2	-0.33245617
67	0x3f92a6d1	1.1457158
68	0x3fb1db39	1.3895026
69	0x3f232a06	0.63736
70	0xbf6ad911	-0.9173747
71	0xbebeb43f	-0.37246892
72	0xbfdc4c44	-1.7210774
73	0xbfa3ae4f	-1.278757
74	0xbfa68bd3	-1.3011421
75	0x3f0a656a	0.54060996
76	0xbf87512a	-1.0571644
77	0x3f66410e	0.89943016
78	0xbf144d41	-0.5793038
79	0x3f35845d	0.70905095
80	0x402a435c	2.6603613
81	0xbe681c4a	-0.22667041
82	0x3e9e98c2	0.3097592
83	0x3e8b086e	0.2715487
84	0xbf2a4476	-0.66510713
85	0xbf9c0a60	-1.2190666
86	0xbf8b8e01	-1.0902711
87	0xbf6c3ea4	-0.9228308
88	0xbf339b60	-0.7015896
89	0xbef877f6	-0.48529023
90	0xbcaaea50	-0.020863682
91	0x3fe3a8b5	1.778586
92	0xbf226565	-0.63435966
93	0x3ed7385f	0.42035195
94	0xbfe276bc	-1.7692485
95	0xbd4fae17	-0.050703134
96	0xbdd076e8	-0.101789296
97	0x3f37ac61	0.71747404
98	0x3fa3d1e5	1.279843
99	0x3f445b3a	0.767017
100	0x3e358d7f	0.17729758
101	0xbfd0e610	-1.632021
102	0x3f947e49	1.1601039
103	0xbe79e7c4	-0.24404818
104	0x3f769074	0.9631417
105	0x3fb6ad32	1.4271605
106	0x3f540837	0.82825035
107	0xbf0fc954	-0.5616658
108	0xbdfe9d97	-0.124324016
109	0x3e947558	0.28995776
110	0xbf4aec7a	-0.79267085
111	0x3fa57f7c	1.292953
112	0x3fe8fdc5	1.8202444
113	0x3f18aebc	0.59641623
114	0x3e4fa5e4	0.20278126
115	0xbe877457	-0.26455948
116	0xbeee2643	-0.46513566
117	0x3e9a1dc2	0.30100828
118	0x3f6221f1	0.8833304
119	0xbfd5b293	-1.6695122
120	0xbe89baca	-0.2690032
121	0xbff4be40	-1.912056
122	0xbf997335	-1.1988283
123	0x3fe3ea00	1.7805786
124	0x3ef6ae90	0.48180056
125	0x3fa36a82	1.2766879
126	0x3ec54847	0.38531706
127	0xbf3a575d	-0.72789556

rnn.weight_ih_l0 f4 [16, 16]
0	0x3d5b8ec0	0.053602934
1	0xbe62ee5c	-0.2216124
2	0xbda905b4	-0.08253041
3	0x3d8ffb20	0.0703032
4	0xbe079ac2	-0.13242629
5	0x3d6133e0	0.054981112
6	0xbca65cc0	-0.020307899
7	0x3e7bfdd2	0.24608544
8	0x3e3f4cbc	0.18681616
9	0xbe211b80	-0.15733147
10	0x3cbdc530	0.023165315
11	0x3e61e422	0.22059682
12	0x3dea16d8	0.11430138
13	0xbe011c18	-0.12608373
14	0xbe6e0ce6	-0.23247108
15	0x3e400250	0.18750882
16	0xbe0a6e4a	-0.13518634
17	0xbc5e9f40	-0.013587773
18	0xbdef17f8	-0.116744936
19	0x3e7e41ae	0.24829742
20	0x3e45e3bc	0.19325155
21	0xbbb7fc40	-0.0056147873
22	0xbd37e7a8	-0.04489866
23	0xbc3c03c0	-0.011475503
24	0x3d5cf968	0.05394879
25	0xbdb179ac	-0.08665785
26	0xbe3056e6	-0.17220649
27	0xbc514b00	-0.012774229
28	0x3d045980	0.032311916
29	0xbe5bbc6a	-0.21458593
30	0xbe5fe0f2	-0.21863154
31	0xbcd70d00	-0.026251316
32	0x3e0a0ce6	0.13481483
33	0xbe364372	-0.17799166
34	0xbd56fcf0	-0.052487314
35	0x3e757ea4	0.23974091
36	0x3e4a22e2	0.19739869
37	0xbd3be8c8	-0.045876294
38	0x3df379d0	0.11888468
39	0x3df8748c	0.121316046
40	0x3e160abe	0.14652535
41	0xbe0046f6	-0.1252707
42	0xbe395066	-0.18097076
43	0xbe240902	-0.16019061
44	0x3e173996	0.14768061
45	0xbe5abc52	-0.21360901
46	0xbe024798	-0.12722623
47	0x3dd214e0	0.10257888
48	0x3cc22b60	0.023702323
49	0xbd93da34	-0.07219353
50	0x3cf07e40	0.029357076
51	0xbe07294c	-0.13199347
52	0x3e5e95d4	0.21736842
53	0x3e44b93e	0.1921129
54	0xbe644c34	-0.22294694
55	0xbe4be738	-0.19912422
56	0x3e53c788	0.20681584
57	0x3e6e2382	0.23255733
58	0x3dc2ecb0	0.09517801
59	0x3e5d1778	0.21590984
60	0x3d4bc148	0.049744874
61	0x3deaa654	0.11457506
62	0xbe329bee	-0.17442295
63	0xbe0bd716	-0.13656268
64	0x3dbb32c0	0.09140539
65	0xbd0423a0	-0.032260537
66	0xbd969f5c	-0.07354614
67	0xbdf3afdc	-0.11898777
68	0xbe6b44d4	-0.22975475
69	0xbdd3f91c	-0.10350248
70	0xbe3c739e	-0.1840348
71	0xbb506a00	-0.0031801462
72	0x3e7150e4	0.23566014
73	0x3e7c2ffc	0.2462768
74	0x3d6a5210	0.057207167
75	0xbe325132	-0.17413786
76	0xbac75600	-0.0015208125
77	0x3e2fd3c0	0.1717062
78	0x3e367914	0.17819625
79	0xbd641ae8	-0.055689722
80	0xbe44a3c8	-0.19203103
81	0x3d5d3c50	0.054012597
82	0x3d866c48	0.06563622
83	0x3e1c9bbc	0.15293783
84	0xbe79fc56	-0.24412665
85	0x3d10e1d0	0.0353716
86	0xbdd17014	-0.10226455
87	0xbe52790a	-0.20553985
88	0x3e1d8264	0.15381771
89	0x3e746744	0.23867518
90	0xbcc69510	-0.024241
91	0xbdb8cc8c	-0.09023389
92	0xbd9b80d8	-0.07592934
93	0xbe792fbc	-0.24334615
94	0x3c7ca9e0	0.015421361
95	0x3dd79a48	0.10527474
96	0xbb1d1e80	-0.0023974478
97	0xbe056caa	-0.13029733
98	0x3de343b0	0.11096895
99	0x3e19aad0	0.15006566
100	0xbd7e6c18	-0.062114805
101	0xbe505392	-0.2034438
102	0xbe5f8b88	-0.2183057
103	0xbc14a700	-0.009073019
104	0xbe10adea	-0.14128843
105	0x3d81a45c	0.06330177
106	0x3e451ed6	0.19250044
107	0xbe55834e	-0.2085087
108	0x3e2e13da	0.1699976
109	0x3e116d86	0.14201936
110	0x3dfb0c58	0.12258214
111	0xbe56bbb2	-0.20970038
112	0xbdd8bb70	-0.10582626
113	0xbdcdae58	-0.10043019
114	0x3e398112	0.18115643
115	0xbe76129e	-0.2403054
116	0x3d93c9f4	0.07216254
117	0x3daa6d5c	0.0832164
118	0x3df9b394	0.12192455
119	0x3e5b7520	0.21431398
120	0xbd715990	-0.058923304
121	0xbe4689d8	-0.1938852
122	0x3e26fac0	0.16306591
123	0x3e733030	0.23748851
124	0x3ca58c90	0.020208627
125	0xbb46f500	-0.0030358434
126	0x3c74f180	0.014950156
127	0xbd708a18	-0.058725446
128	0x3e1a0486	0.15040788
129	0x3e2a0ee4	0.16607243
130	0x3e57687a	0.21035948
131	0x3ce1a3f0	0.027543992
132	0xbe76498a	-0.2405149
133	0x3e2a3932	0.16623381
134	0x3e1e2f4c	0.1544773
135	0xbe1674d2	-0.14693001
136	0xbc8d3c00	-0.017240524
137	0xbd26a0f8	-0.040680856
138	0xbe2963e4	-0.16542011
139	0xbda2b598	-0.079447925
140	0xbdbc1c44	-0.09185079
141	0xbe401ade	-0.18760249
142	0x3e1ae61a	0.1512684
143	0xbc8dddc0	-0.017317653
144	0x3b9f2200	0.004856348
145	0xbe27a538	-0.1637162
146	0x3d11cd30	0.035596073
147	0x3e28474a	0.16433445
148	0xbdde01d0	-0.108401895
149	0x3e4fa0d8	0.20276201
150	0x3db53324	0.08847645
151	0xbe65294e	-0.22379038
152	0x3e05eaf8	0.13077915
153	0x3d441318	0.04786977
154	0xbdca98f4	-0.09892455
155	0x3d8575d8	0.065166175
156	0x3e7a7fe2	0.24462846
157	0x3e1d9ed2	0.15392616
158	0x3e6ca082	0.23108104
159	0x3d17cee8	0.037062556
160	0x3e75aa98	0.23990858
161	0xbe522590	-0.20522141
162	0x3dd8ba88	0.10582453
163	0x3e1aaaa8	0.15104163
164	0xbe76b5a8	-0.24092734
165	0xbe3ba74e	-0.1832554
166	0x3dc61bdc	0.096732825
167	0xbe67b76e	-0.22628567
168	0xbd9a6394	-0.07538524
169	0x3daded6c	0.0849255
170	0x3e1780fe	0.147953
171	0xbe5ac4e8	-0.21364176
172	0xbe6fe2f6	-0.23426422
173	0x3d8becb0	0.06832254
174	0x3b33ae00	0.0027416945
175	0xbe24e87c	-0.16104311
176	0x3e5e8d9a	0.21733704
177	0xbe47c6b8	-0.19509399
178	0x3d670228	0.05639854
179	0xbe5e6458	-0.21717966
180	0x3e501476	0.20320305
181	0xbd4d2f30	-0.05009383
182	0xbd13e938	-0.036111087
183	0xbe12a780	-0.14321709
184	0xbe017120	-0.1264081
185	0xbde7166c	-0.112835735
186	0xbd926a70	-0.071492076
187	0xbe32d2da	-0.17463246
188	0x3df639f4	0.120227724
189	0x3d9a9d04	0.075494796
190	0xbdddc2ac	-0.10828146
191	0x3e7cf7ec	0.2470395
192	0x3e1ab584	0.15108305
193	0x3ce97720	0.028499186
194	0x3daa08bc	0.08302447
195	0xbe5e455e	-0.21706149
196	0x3e4d3fa8	0.20043814
197	0xbe3d2990	-0.18472886
198	0xbd885ac8	-0.0665794
199	0xbc2f7460	-0.010708898
200	0x3e2314e0	0.15925932
201	0xbdc7af54	-0.09750238
202	0xbc5cfa00	-0.013487339
203	0xbe5a6c22	-0.21330312
204	0x3e27d35c	0.16389221
205	0xbe50f29c	-0.20405048
206	0x3d9ff230	0.078098655
207	0xbe18d716	-0.14925799
208	0xbe4abc16	-0.19798312
209	0xbd93ac1c	-0.07210562
210	0xbdfea55c	-0.124338835
211	0xbe11c520	-0.14235353
212	0x3e62b1c2	0.22138122
213	0x3e5cdad8	0.21567857
214	0xbe0afac0	-0.13572216
215	0x3e0f03f0	0.13966346
216	0x3e4f7802	0.20260623
217	0x3e156f92	0.14593342
218	0x3db43554	0.08799234
219	0x3e294398	0.16529691
220	0x3cc3c790	0.02389887
221	0xbc516e00	-0.012782574
222	0x3e75bc52	0.2399762
223	0x3dcbed98	0.09957427
224	0xbd9e2e0c	-0.077236265
225	0x3ad14400	0.00159657
226	0x3e5a5bce	0.21324083
227	0x3e13f6e4	0.1444965
228	0x3e10a8f2	0.14126948
229	0x3e5dbdc2	0.21654418
230	0xbe197628	-0.1498648
231	0xbe08d56c	-0.13362664
232	0xbe5125c8	-0.20424569
233	0x3c6689c0	0.014070928
234	0x3e5c81b2	0.2153385
235	0x3cf8e8c0	0.030384421
236	0x3d077c20	0.03307736
237	0x3da711c0	0.081576824
238	0x3e76da8e	0.2410681
239	0x3e32bf80	0.17455864
240	0x3b8443c0	0.0040363967
241	0xbe19cc44	-0.15019327
242	0x3d54c598	0.051946253
243	0xbe3a6104	-0.18201071
244	0x3e5365e4	0.20644337
245	0x3e03ddf6	0.1287764
246	0xbcc31810	-0.023815185
247	0xbe159238	-0.1460656
248	0xbe10fd94	-0.14159232
249	0xbe19f2a8	-0.15033972
250	0x3dc605f8	0.09669107
251	0x3d2eead8	0.042704433
252	0xbe77d3e4	-0.24201924
253	0xbdea961c	-0.11454412
254	0xbc19a540	-0.009377778
255	0xbdbcdf18	-0.09222239

rnn.weight_hh_l0 f4 [16, 16]
0	0xbd2970f8	-0.0413675
1	0x3e50c6a8	0.20388281
2	0xbe0164b8	-0.12636077
3	0xbe45f95a	-0.19333401
4	0xbdb54b50	-0.08852255
5	0x3e1d661e	0.15370986
6	0xbe5edc8c	-0.2176382
7	0x3e33746e	0.17524883
8	0x3d9b4020	0.0758059
9	0xbe420332	-0.18946531
10	0x3e2fb698	0.17159498
11	0x3db9a170	0.09063995
12	0xbcdfb8e0	-0.027309835
13	0xbe7898f0	-0.24277091
14	0xbdc00300	-0.09375572
15	0x3e0a5296	0.13508067
16	0x3de66c08	0.11251074
17	0x3e1d515a	0.15363064
18	0xbe3a8aa0	-0.18216944
19	0xbe7f5564	-0.24934918
20	0xbe04858c	-0.12941569
21	0x3e2111d4	0.15729457
22	0xbde4aa10	-0.11165249
23	0xbe274d50	-0.16338086
24	0xbe6ef222	-0.23334554
25	0xbe2d2754	-0.16909534
26	0xbd5a38d0	-0.053276837
27	0xbe0449d0	-0.12918782
28	0xbe3db866	-0.18527374
29	0xbe58724a	-0.21137348
30	0xbd2cf398	-0.042224497
31	0x3da496e8	0.080365956
32	0xbd93e230	-0.07220876
33	0xbde29d68	-0.11065179
34	0xbc51e820	-0.012811691
35	0x3cbfcc10	0.023412734
36	0xbe38f0b0	-0.18060565
37	0xbb5c5800	-0.0033621788
38	0xbe63a3dc	-0.22230476
39	0x3ded2928	0.115801156
40	0x3d25eec8	0.040510923
41	0x3d5188e8	0.051155955
42	0x3dd8c288	0.10583979
43	0x3e4c17e0	0.19930983
44	0xbc8ab0f0	-0.016930073
45	0x3e6d4700	0.23171616
46	0x3e24f5a8	0.16109335
47	0xbd93c9e4	-0.07216242
48	0x3e49e078	0.19714534
49	0x3e5e2426	0.21693477
50	0x3e5625ec	0.20912904
51	0xbe635616	-0.22200808
52	0xbd19a6c8	-0.03751257
53	0xb96dc000	-0.00022673607
54	0xbc9a4590	-0.018831998
55	0x3e224b18	0.15848958
56	0x3dfe741c	0.1242449
57	0x3d14c770	0.03632301
58	0x3d357468	0.044300467
59	0x3d72e028	0.059295803
60	0x3cb29c90	0.02180317
61	0xbe21cbac	-0.15800351
62	0x3e5ff5b2	0.21871069
63	0x3c4b1e60	0.012397379
64	0xbcfe1940	-0.0310179
65	0xbe07bf66	-0.13256606
66	0x3ddc4b88	0.10756594
67	0xbe17928e	-0.14802
68	0x3e37c9d8	0.17948091
69	0x3d07c938	0.03315088
70	0xbc9072c0	-0.017632842
71	0xbc08ae40	-0.008342326
72	0x3dc9adec	0.09847626
73	0xbe420cf8	-0.1895026
74	0x3e52e748	0.2059604
75	0xbd1e4270	-0.03863758
76	0xbda63d70	-0.08117187
77	0x3d904fac	0.07046446
78	0xbe62370a	-0.22091308
79	0xbd9fd870	-0.07804954
80	0x3de6923c	0.11258361
81	0xbe070984	-0.13187224
82	0xbe57436e	-0.21021816
83	0xbe24da72	-0.16098955
84	0x3dc0440c	0.09387979
85	0x3e293fe4	0.16528279
86	0x3e011aae	0.12607834
87	0x3cd5d330	0.026101679
88	0x3c0a75e0	0.008450955
89	0x3e614fd4	0.22003108
90	0xbdf99e8c	-0.121884435
91	0xbe50a5b0	-0.20375705
92	0xbd27e9d8	-0.040994495
93	0xbe3f2b0c	-0.18668765
94	0x3ce70210	0.028199226
95	0x3d10bff8	0.035339326
96	0xbdb96ab0	-0.09053552
97	0xbe0694fa	-0.13142768
98	0xbe0b6954	-0.13614398
99	0xbe720fa6	-0.23638782
100	0xbe4299c0	-0.19003963
101	0x3e3da94e	0.18521616
102	0xbe1fc5f4	-0.15602857
103	0xbc002700	-0.007821798
104	0xbdb98c94	-0.09060016
105	0xbe350214	-0.17676574
106	0xbe5f5746	-0.21810636
107	0x3d4ab530	0.0494892
108	0xbe66b026	-0.22528133
109	0x3d4615e0	0.048360705
110	0x3e6b2b5a	0.22965756
111	0x3e79240e	0.2433016
112	0x3dcf7ac4	0.101308376
113	0x3bfc6040	0.0077019036
114	0xbc4e3ce0	-0.012587756
115	0x3e210d84	0.15727812
116	0x3d073968	0.03301373
117	0xbd9158ec	-0.070970386
118	0x3dc5e960	0.096636534
119	0xbbb0d000	-0.0053958893
120	0xbe296fb4	-0.16546518
121	0xbdfc37e8	-0.12315351
122	0xbda0fc7c	-0.078606576
123	0xbe71cd5c	-0.23613495
124	0x3d91ee30	0.07125509
125	0x3dbcada8	0.0921281
126	0xbe1733d4	-0.14765865
127	0xbdc8cd40	-0.09804773
128	0xbda3e3d8	-0.08002442
129	0xbe2d51c0	-0.16925716
130	0xbd4e1728	-0.050315052
131	0xbe0cbdcc	-0.13744277
132	0x3e329626	0.1744009
133	0xbc58a4a0	-0.013222843
134	0xbbcb5b40	-0.006205946
135	0x3e2d22cc	0.16907805
136	0xbe19e03c	-0.15026945
137	0x3e1b82b4	0.15186578
138	0x3e277c98	0.16356122
139	0xbdc552f8	-0.09634966
140	0xbde6d3f0	-0.112708926
141	0xbe7781ea	-0.24170652
142	0xbd08a0c8	-0.033356458
143	0x3df67e0c	0.1203576
144	0x3da1a3dc	0.07892582
145	0xbdfc937c	-0.12332818
146	0x3e1dac94	0.15397865
147	0x3e3a3f48	0.18188202
148	0x3cd08020	0.02545172
149	0x3e7b001a	0.24511757
150	0x3e6fc112	0.23413494
151	0xbe4e3c08	-0.20140088
152	0xbd266538	-0.040623873
153	0x3d4e42a0	0.050356507
154	0x3e12ee86	0.14348802
155	0x3d6e60d0	0.058197796
156	0x3e7d06d6	0.24709639
157	0x3d985c84	0.07439521
158	0x3b7d7b80	0.0038678348
159	0x3e0c5f46	0.13708219
160	0x3e7e97f4	0.24862653
161	0xbd16f5b0	-0.0368554
162	0xbc738ac0	-0.014864624
163	0x3d8ca790	0.068678975
164	0x3d1270d0	0.035752118
165	0xbe31dd6e	-0.17369625
166	0xbdd26d84	-0.10274795
167	0xbe3faad0	-0.18717504
168	0x3c828590	0.015932828
169	0x3e51bc32	0.20481947
170	0x3e2644e4	0.16237217
171	0xbddb5a38	-0.10710567
172	0x3e56ddcc	0.20983046
173	0xbbca0b80	-0.0061659217
174	0x3e2180a6	0.15771732
175	0x3e75ca96	0.24003062
176	0xbcbff5b0	-0.023432583
177	0xbdad8858	-0.08473271
178	0xbd34ff60	-0.044188857
179	0x3cf67a80	0.03008771
180	0x3e6f2060	0.23352194
181	0xbe44555e	-0.1917319
182	0x3d961d10	0.07329762
183	0xbd0e3528	-0.034718663
184	0xbe6e340c	-0.23262042
185	0x3e6c6818	0.23086584
186	0x3c6393a0	0.013890177
187	0xbe3d46c2	-0.18484023
188	0x3d360a58	0.04444346
189	0x3e393990	0.18088365
190	0x3e1e83bc	0.1547994
191	0x3de2b35c	0.11069366
192	0x3b0b4180	0.0021248758
193	0xbe7dd86a	-0.24789587
194	0x3d0bc8a0	0.034126878
195	0xbd5842c0	-0.052798033
196	0x3ce02500	0.027361393
197	0xbd127828	-0.03575912
198	0x3cff30f0	0.031151265
199	0xbe386a68	-0.18009341
200	0x3e0369a2	0.12833264
201	0x3e75a2ec	0.23987931
202	0x3d5593e0	0.052142978
203	0x3d83b834	0.06431618
204	0xbdc56ae0	-0.096395254
205	0xbe04ded6	-0.1297563
206	0xbe6244c8	-0.2209655
207	0xbd770890	-0.0603109
208	0xbe726f7c	-0.2367534
209	0x3da88ac4	0.082295924
210	0x3d18c690	0.03729874
211	0xbe2602a2	-0.16211942
212	0xbc1c64e0	-0.009545535
213	0xbe675bf8	-0.22593677
214	0xbe07b508	-0.13252652
215	0xb9fdc800	-0.00048404932
216	0xbe4d649e	-0.20057914
217	0x3d171dd8	0.036893696
218	0x3d9f9598	0.077922046
219	0xbd6e6be8	-0.058208376
220	0xbe209550	-0.15681958
221	0x3e7d3150	0.24725842
222	0xbd766c58	-0.06016192
223	0x3c3858c0	0.011251628
224	0x3dd825b4	0.10554066
225	0xbde986ec	-0.114026874
226	0xbde20334	-0.11035767
227	0x3e790078	0.24316585
228	0x3e7c58ec	0.24643296
229	0xbe6cd678	-0.23128688
230	0xbe5bd7c4	-0.21469027
231	0xbd05dab0	-0.03267926
232	0x3cba4df0	0.022742242
233	0x3e3ec250	0.18628812
234	0x3e7ac0f4	0.24487668
235	0xbd91fdd8	-0.07128495
236	0xbcdfbcd0	-0.027311713
237	0x3e53119a	0.20612183
238	0x3dfcf9d8	0.123523414
239	0xba50c200	-0.00079634786
240	0x3e4bdd32	0.19908598
241	0x3da8fa30	0.082508445
242	0xbe570bae	-0.21000549
243	0x3dfbeac8	0.1230064
244	0xbd33cee8	-0.043898493
245	0xbe22f054	-0.1591199
246	0xbe771990	-0.24130845
247	0x3e2e6146	0.17029294
248	0xbe794b40	-0.24345112
249	0xbe002e26	-0.12517604
250	0x3e5b1fb2	0.2139881
251	0x3dff3cd4	0.12462774
252	0x3e0eedb2	0.13957861
253	0x3e5d4de2	0.21611741
254	0xbe056acc	-0.13029021
255	0xbe29c6ea	-0.16579786

rnn.bias_ih_l0 f4 [16]
0	0xbd9f5048	-0.07778984
1	0xbd8dbcc4	-0.0692077
2	0x3dfbb408	0.122901976
3	0xbd4bd820	-0.04976666
4	0xbe569754	-0.20956165
5	0xbd6fe860	-0.05857122
6	0xbd89029c	-0.06689951
7	0x3e2c4fc6	0.16827306
8	0xbd2b4988	-0.04181817
9	0xbe7476f0	-0.23873496
10	0x3c9b61d0	0.01896754
11	0x3e54a5bc	0.20766348
12	0xbe3932fe	-0.18085858
13	0x3e0eee22	0.13958028
14	0xbde1f034	-0.11032143
15	0x3d942cb4	0.07235089

rnn.bias_hh_l0 f4 [16]
0	0xbd8c9ee0	-0.068662405
1	0x3e1d0c5a	0.15336743
2	0xbe0db384	-0.13838011
3	0xbe3f26f0	-0.18667197
4	0x3e6b8438	0.22999656
5	0x3db47898	0.08812064
6	0xbe00f3da	-0.12593022
7	0x3d815ce0	0.063165426
8	0xbdf0b554	-0.117533356
9	0xbcfa8240	-0.030579686
10	0x3d0c3380	0.0342288
11	0xbe7a92e0	-0.24470091
12	0xbc5d4920	-0.013506204
13	0x3e576800	0.21035767
14	0x3e11b4f2	0.14229181
15	0xbe6ce2f2	-0.23133448

fc.weight f4 [8, 16]
0	0xbe309698	-0.17244947
1	0x3db64368	0.088995755
2	0x3e14cf36	0.1453217
3	0x3df2a5c8	0.118480265
4	0x3dad431c	0.08460066
5	0xbde124dc	-0.109933585
6	0xbe048aca	-0.12943569
7	0x3c90b930	0.01766643
8	0x3e295c4a	0.16539112
9	0xbd833e54	-0.064083725
10	0x3df201d4	0.11816755
11	0xbe5d7a9c	-0.21628803
12	0xbddeef1c	-0.1088545
13	0xbe3967ba	-0.18105975
14	0xbd2c4210	-0.04205519
15	0x3dfb57c8	0.12272602
16	0x3a29e400	0.0006480813
17	0xbda8ae34	-0.082363516
18	0xbc8e3310	-0.017358333
19	0x3e2d796c	0.1694085
20	0xbe2a7638	-0.1664666
21	0x3e51ff16	0.20507464
22	0x3e6d6800	0.23184204
23	0x3e6468f4	0.22305661
24	0x3e58e784	0.21182066
25	0xbdf9e524	-0.12201908
26	0xbde04380	-0.109503746
27	0x3e584eac	0.21123761
28	0x3e431ed4	0.19054729
29	0xbe124cc8	-0.14287102
30	0xbc92d8a0	-0.01792556
31	0xbdc2bb14	-0.095083386
32	0xbe455ece	-0.19274446
33	0x3d4c8988	0.049935848
34	0x3df775cc	0.12083015
35	0x3ddae938	0.10689014
36	0xbab3be00	-0.0013713241
37	0xbe5a6270	-0.21326613
38	0xbdfefdd8	-0.124507606
39	0x3e4db59a	0.20088807
40	0xbd0ded48	-0.034650117
41	0x3e614c94	0.22001868
42	0x3e1fc96c	0.1560418
43	0xbe4b5436	-0.19856343
44	0xbe6cce18	-0.23125494
45	0xbc616420	-0.013756782
46	0xbdbf1ef0	-0.09332073
47	0x3d684fa8	0.05671659
48	0x3cf48bd0	0.029851824
49	0xbe5480d0	-0.20752263
50	0xbe6e0cf0	-0.23247123
51	0x3e5097e8	0.20370448
52	0x3e2fbc2a	0.17161623
53	0x3e193b3e	0.14964005
54	0xbd93ac80	-0.07210636
55	0x3de51a98	0.11186713
56	0xbe6f47ec	-0.2336728
57	0xbdcef10c	-0.1010457
58	0xbd4254f0	-0.047444284
59	0xbe2933fc	-0.16523737
60	0xbd349d58	-0.044095367
61	0xbe02a3c8	-0.1275779
62	0x3e3b5786	0.18295106
63	0xbce44b00	-0.027867794
64	0xbe548dc6	-0.20757207
65	0xbd3c1990	-0.045922816
66	0x3e62e43c	0.22157377
67	0x3dce32a0	0.1006825
68	0xbe509f60	-0.20373297
69	0x3e66791a	0.22507134
70	0xbe75dbdc	-0.24009651
71	0x3e2d9b2c	0.16953725
72	0xbe11d1e8	-0.14240229
73	0xbe230314	-0.15919143
74	0x3dac761c	0.08420965
75	0xbde41048	-0.11135918
76	0xbc76c280	-0.015061021
77	0xbe51675a	-0.20449582
78	0x3d3505a0	0.044194818
79	0x3e2d413e	0.16919419
80	0xbe612b7e	-0.21989247
81	0xbe7ed254	-0.24884921
82	0x3e67d052	0.22638062
83	0xbe441cca	-0.19151607
84	0xbdbde1e0	-0.09271598
85	0xbd603c20	-0.05474484
86	0x3e5da206	0.21643838
87	0xbd39eb88	-0.045390636
88	0x3d81de7c	0.06341264
89	0x3dee05ac	0.116221756
90	0x3e0322f8	0.12806308
91	0x3c7ed8e0	0.015554637
92	0x3e2bd566	0.16780624
93	0xbe577cda	-0.21043721
94	0x3e7c6fc6	0.24652013
95	0xbc91c9d0	-0.017796427
96	0xbe19b27e	-0.15009496
97	0xbd6d4988	-0.057931453
98	0x3b663300	0.0035125613
99	0xbd78f9c8	-0.060785085
100	0xbd8810c8	-0.06643826
101	0x3e6e1b10	0.23252511
102	0xbe121a54	-0.14267856
103	0xbe24fb20	-0.16111422
104	0x3d4b9078	0.049698323
105	0x3e3759f2	0.17905405
106	0xbdf14b94	-0.117819935
107	0x3e059f50	0.13049054
108	0xbe3165b8	-0.17323959
109	0x3deda9a4	0.11604622
110	0xbdc43450	-0.0958029
111	0xbce237f0	-0.027614564
112	0x3d7c6f68	0.061629683
113	0x3d8e426c	0.06946263
114	0x3d929b28	0.071585
115	0xbe291882	-0.16513255
116	0xbd03bd30	-0.032162845
117	0xbd262438	-0.040561885
118	0xbdbad39c	-0.091223925
119	0xbe36884a	-0.17825428
120	0xbddfde7c	-0.109311074
121	0x3cd3ccc0	0.025854468
122	0xbd2e6db8	-0.042585105
123	0x3e096438	0.13417137
124	0x3b20ac00	0.0024516582
125	0x3e189ae4	0.14902836
126	0x3e08a698	0.133448
127	0x3e3439f6	0.17600235

fc.bias f4 [8]
0	0xbdc01024	-0.093780786
1	0xbdc7d630	-0.0975765
2	0x3df06e54	0.117397934
3	0xbdab3724	-0.083601266
4	0x3db29f68	0.087218106
5	0x3dd3c0bc	0.103394955
6	0xbe3c9db0	-0.18419528
7	0xbe4fd0fa	-0.20294562
