practice_torch/tiny_lm.pth (torch, 6097 bytes, 7 tensors)

embed.weight f4 [8, 16]
000000 91 92 7d bd 6c 03 10 bf d1 bf e5 3f 40 45 13 be
       -0.061907355 -0.5625522 1.7949163 -0.14381886
000010 5a f3 45 c0 99 22 6d 3f ed 1a 0b 3e e4 3a f2 3f
       -3.092978 0.92630917 0.1358449 1.8924222
000020 0d c6 01 3c cd 1e 56 bf 4c 84 4a 3f f6 bd 67 bf
       0.007920754 -0.8364075 0.7910812 -0.9052423
000030 8e e6 8e be 8f d8 c9 3f 26 cc 19 40 2b a0 51 bf
       -0.27910274 1.5769213 2.4030852 -0.8188502
000040 e9 41 4b c0 1d 38 08 be 7e 6c 26 bf 14 7d fb bf
       -3.1758978 -0.13302656 -0.65009296 -1.9647546
000050 09 bc d0 be f9 b6 18 3f c2 e7 0b 3d c6 bc 59 bf
       -0.4076846 0.59654194 0.03415657 -0.8505367
000060 7b ff c5 3e 93 36 61 bf 39 ae 87 be d6 1a 82 bf
       0.3867148 -0.879739 -0.2650011 -1.016444
000070 44 a4 80 3f 13 cd b7 3e 7a b5 c9 3f 4d e6 59 bf
       1.005013 0.35898647 1.5758507 -0.85117036
000080 20 9c a8 3e 6b 04 b8 bf 27 ba 1a c0 58 94 0f 3f
       0.32931614 -1.4376348 -2.4176118 0.5608573
000090 b9 c0 7e be 98 6b 80 3f ff a6 49 bf 2e 65 8d bf
       -0.24878205 1.0032835 -0.7877044 -1.1046503
0000a0 7d 82 1c 3d 63 e3 37 bf b5 44 a6 bc 1f ac ba 3f
       0.03821038 -0.7183134 -0.020296434 1.4583777
0000b0 c1 32 8a 3f 64 6d e7 3e ea 07 ea 3d e7 d6 dd bd
       1.0796739 0.45200646 0.11427291 -0.10832005
0000c0 92 32 95 be e9 f1 28 3f 38 c2 94 bf 05 4a df 3e
       -0.29140145 0.65994126 -1.1621771 0.4361116
0000d0 9d 5f 3d c0 0b b0 40 3e 2c b0 83 bf 5f 9c 40 bf
       -2.9589608 0.18817155 -1.0288138 -0.75238603
0000e0 83 cd 87 be 2d ae 96 be da 56 61 3f 65 97 c8 3e
       -0.2652398 -0.2942976 0.8802315 0.39178005
0000f0 34 39 49 3f 58 8a 4e 40 1d 34 a4 3f 29 57 3e 3f
       0.7860291 3.2271938 1.2828404 0.74351746
000100 58 3c 0f bf 98 b8 03 3e bb 24 91 bf 05 47 33 be
       -0.5595145 0.12863386 -1.1339334 -0.1750756
000110 47 27 de bf 5c 3f cc 3e e1 93 9e be 84 31 da 3e
       -1.7355736 0.3989209 -0.30972198 0.42615902
000120 20 ac 3d 3f 96 66 03 c0 75 1a bb bf 35 88 07 3f
       0.74090767 -2.0531363 -1.4617449 0.5294221
000130 b1 40 c9 3f 86 a5 0a bf 34 1e 52 bf 8b 42 08 3d
       1.5722867 -0.5415882 -0.82077336 0.033266585
000140 2a 5c 39 3e df aa 97 bf 95 30 95 be f5 6f bd be
       0.18101564 -1.1849021 -0.29138628 -0.3699948
000150 d9 f0 5c be a6 eb 38 3e a9 d5 f8 3e c1 c8 8f 3d
       -0.21576251 0.18058643 0.4860051 0.07020713
000160 42 42 9f be 92 19 bc 3f 46 82 85 3f cc 0d 04 40
       -0.31105238 1.4695303 1.0430381 2.063342
000170 fc 5c eb 3e f0 8a ec bf 14 a0 87 bf f3 3f 83 3f
       0.4596938 -1.84799 -1.0595727 1.0253891
000180 03 a6 93 be 32 f3 f0 bd 05 8c 86 3f e3 47 4b bf
       -0.28837594 -0.11765136 1.051148 -0.79406565
000190 61 9c b7 be 36 34 43 3e d7 a2 cd be f2 b6 2b 3d
       -0.35861495 0.19062886 -0.401633 0.041922517
0001a0 ff c9 61 3e 83 33 1f 3f c2 a8 63 bf 65 55 e9 bb
       0.22049712 0.62187976 -0.8892938 -0.0071207755
0001b0 86 d7 8d 3e 86 7a ab 3c 48 56 1a be e1 c8 51 3f
       0.27703494 0.020932447 -0.15071976 0.8194714
0001c0 10 6a 2c be 0a 22 eb be bf 34 58 3f 46 72 92 be
       -0.16837335 -0.45924407 0.84455484 -0.2860281
0001d0 21 eb 3b 3f 3f 9e aa 3f 14 12 a4 be 89 bf b5 3e
       0.73405653 1.3329543 -0.32045043 0.35497692
0001e0 a8 9b 74 3e 1c 2c 6f be 96 3c be bf e3 60 d2 3e
       0.23887503 -0.2335667 -1.4862239 0.41089544
0001f0 72 45 ef be d2 24 35 c0 cf 0e 33 bd e6 3a a5 bd
       -0.4673267 -2.8303723 -0.043715294 -0.080678746

rnn.weight_ih_l0 f4 [16, 16]
000000 00 84 f5 bb 20 55 96 3d 00 b5 42 be 9c 26 2e 3e
       -0.0074925423 0.07340455 -0.19014359 0.17006916
000010 e8 95 47 bd 00 58 59 3b 00 a6 8d 3a b8 e6 32 3d
       -0.048726946 0.0033164024 0.0010806918 0.04367706
000020 e0 23 1b 3c 8e d9 2a be 48 54 06 3d e0 d2 e3 bd
       0.0094690025 -0.16684553 0.03279522 -0.111242056
000030 24 c2 0b be 88 ca 11 3d ca f5 4b be 50 93 97 3d
       -0.13648278 0.03559354 -0.1991798 0.074011445
000040 00 4c ab 3a 10 72 08 be 00 16 95 bc 22 8d 1c 3e
       0.0013068914 -0.13324761 -0.018198967 0.15288213
000050 e4 20 69 be 88 c9 36 be 5a 74 27 be 7e 1c 53 3e
       -0.22766453 -0.17850316 -0.16352978 0.20616338
000060 38 e7 ce bd 54 31 d3 bd 76 04 63 3e 00 13 86 bb
       -0.10102695 -0.10312143 0.2216967 -0.0040916204
000070 7e df 6e be a2 f5 1e be 94 4a 74 3e f0 7a 5c 3e
       -0.23327443 -0.15523389 0.23856574 0.21531272
000080 68 b7 6b bd 24 c0 63 be 2e ba 40 3e c8 68 0a 3e
       -0.057547957 -0.22241265 0.18821022 0.13516533
000090 4c d8 74 3e c0 0e b0 3d b0 c6 f8 3c 4e 6e 5c be
       0.23910636 0.08596563 0.03036818 -0.21526453
0000a0 44 dd 4d be 4c 4b 47 be 26 85 7c 3e 40 0f 6e 3d
       -0.20103937 -0.19462317 0.24660167 0.058120012
0000b0 80 9a 8e 3c b8 ff 5c 3e 20 60 6b 3d 00 8f d9 3c
       0.017407656 0.21581924 0.05746472 0.026557446
0000c0 c6 0c 67 be d4 ac ce 3d cc 31 4c be b0 2f 6a be
       -0.22563466 0.10091558 -0.19940871 -0.22869754
0000d0 18 80 5c bd f0 98 01 3e 56 d6 0c be 18 21 61 3d
       -0.053833097 0.12655997 -0.13753638 0.0549632
0000e0 f0 46 6e bd ce 8a 18 be 46 15 67 3e 80 a6 d6 bc
       -0.05817312 -0.148967 0.22566709 -0.02620244
0000f0 d4 51 02 be 50 b6 ae 3d 06 40 5d be 66 f4 73 3e
       -0.12726527 0.08530867 -0.21606454 0.238237
000100 a0 b6 8d 3d b4 68 e7 bd f8 22 94 3d ca 9b 72 3e
       0.069195986 -0.112992674 0.07233232 0.23692241
000110 66 45 21 be 70 e9 b9 bc 20 ba 4b 3d 02 17 67 3e
       -0.1574913 -0.02269432 0.04973805 0.2256737
000120 98 9c 0a 3d 4c 4b 89 3d 8c ae 1b be bc 07 fa 3d
       0.033840746 0.06703815 -0.15203303 0.122085065
000130 d0 3d 6d bd 58 26 8c bd 00 4c 33 bc 80 cd d1 bc
       -0.057920277 -0.06843251 -0.010943413 -0.025610685
000140 60 52 62 bc 5c 22 da 3d 20 14 78 3c a6 c6 3a 3e
       -0.013813585 0.10651085 0.015141517 0.18239841
000150 24 60 3d 3e 94 3b 65 3e 64 9b 5e 3e 60 5a 03 bc
       0.18493706 0.22386009 0.21738964 -0.008017153
000160 5c 57 bd bd 90 3f 43 be 84 2a a0 bd 68 97 27 3e
       -0.09245178 -0.19067216 -0.07820609 0.1636635
000170 d0 61 51 3e 7c 86 b9 bd 3a 28 6a be c8 be 2f 3d
       0.20447469 -0.09058854 -0.22866908 0.042906553
000180 80 94 6a be 76 f1 52 be 80 78 44 3e 1c a5 2e be
       -0.22908211 -0.20599923 0.19186592 -0.17055172
000190 d0 30 31 3d f4 6d 75 be 42 bd 7d be a0 66 8f bc
       0.04325944 -0.23967725 -0.24779227 -0.01750499
0001a0 70 e6 10 bd 10 b9 3f be 70 70 63 be 74 74 69 3e
       -0.035376012 -0.1872294 -0.2221086 0.2279833
0001b0 c2 06 78 3e ac 2d 0b 3e 46 09 7e 3e a6 57 43 3e
       0.24221328 0.13591641 0.24808225 0.19076404
0001c0 40 c4 7e 3e 00 e8 91 b9 6a 19 4f be 56 cb 70 3e
       0.24879551 -0.0002782941 -0.20224538 0.23515067
0001d0 98 37 a1 bd 40 dc 2b bc 76 39 07 be 20 fe e6 bd
       -0.07871932 -0.010489523 -0.13205513 -0.11278939
0001e0 06 25 74 3e bc 3b 4e 3e 38 ca 53 3e f8 f4 12 bd
       0.23842248 0.20139974 0.20682609 -0.03587815
0001f0 40 8a 63 bd 08 ac 9f bd c2 46 4f be a0 83 39 3d
       -0.055551767 -0.07796484 -0.20241836 0.045291543
000200 18 a2 9f bd ca 59 3c be bc d0 59 be 10 ed 4a 3d
       -0.07794589 -0.18393627 -0.21271032 0.049542487
000210 28 9b fc bd 00 8a 35 3a 28 ac 1b bd 40 a5 ff bd
       -0.12334281 0.00069251657 -0.038005978 -0.12482691
000220 40 69 55 3d 74 d1 2c be 78 88 ea 3d 70 14 c2 3d
       0.052102327 -0.16876775 0.114518106 0.094765544
000230 10 a4 b6 3d a0 bd 83 3d 66 55 6e be 7a bf 13 3e
       0.08918011 0.064326525 -0.23274764 0.14428511
000240 de 8d 4d be 80 93 79 bc 38 75 c1 bd c0 4a bd bb
       -0.2007365 -0.015232921 -0.09446186 -0.005776733
000250 30 a3 18 be ae 54 72 be 36 8c 1e 3e 0c f7 10 3e
       -0.14906001 -0.23665115 0.15483174 0.14156741
000260 aa 61 71 3e 60 78 71 be 34 11 1e be 90 18 07 be
       0.23572412 -0.23581076 -0.1543625 -0.13192964
000270 1e 49 60 3e 42 1c 21 3e 00 98 c5 3b 38 37 2f be
       0.21902892 0.15733436 0.0060300827 -0.17110908
000280 d0 22 41 3e 80 ab e5 3b 60 85 9f bd a0 80 5a 3e
       0.18860936 0.00700897 -0.07789111 0.21338129
000290 3c ae 19 be 9a 5b 60 3e 8a f2 18 3e 58 9e fb 3d
       -0.15007871 0.21909943 0.14936271 0.12286061
0002a0 2c 7c 09 3e 58 90 2a be 48 18 09 be 90 4a 3d 3d
       0.13426274 -0.16656625 -0.13388169 0.046213686
0002b0 22 23 2d be 00 11 c2 bb 58 77 ce 3d 30 48 bb bd
       -0.16907933 -0.0059224367 0.10081357 -0.09144628
0002c0 80 d6 d3 3c 60 e3 61 be e0 79 97 3c 80 47 73 3c
       0.025859118 -0.22059393 0.018490732 0.01484859
0002d0 40 5c 6b be 08 88 28 be 40 c9 1e 3c 64 66 d5 bd
       -0.2298441 -0.16458142 0.009691536 -0.1041992
0002e0 a2 88 68 3e 10 17 84 3c f8 4b 34 be 40 f4 17 3c
       0.22708371 0.016124278 -0.17607105 0.009274542
0002f0 18 80 70 be 76 e5 59 3e 92 87 03 3e 40 f5 d8 bb
       -0.23486364 0.21278939 0.12844685 -0.006621033
000300 50 28 b1 3c 78 8a 39 3e fc 3d 5a 3e f0 3b 1f 3d
       0.021625668 0.18119228 0.21312708 0.03887552
000310 b4 9e 84 3d 94 eb 8b bd 92 1e 18 3e 90 a3 ee 3d
       0.06475583 -0.06832042 0.14855412 0.11652291
000320 e0 14 55 3d f0 bf 78 3e 44 07 9a bd 20 7b 8e bc
       0.05202186 0.24291968 -0.07520917 -0.017392695
000330 04 ba 09 3e 48 28 8b 3d 98 b6 4a 3d d0 c4 dc bc
       0.13449866 0.067947924 0.04949054 -0.026949316
000340 c8 5e 62 be e0 0e 37 3e b8 d5 6c 3d e2 59 0e 3e
       -0.22106469 0.17876768 0.057821006 0.13901475
000350 8a c2 7c 3e c8 0b fd bd 48 1c 4e bd 10 03 01 3d
       0.24683586 -0.12355763 -0.05031994 0.03149706
000360 dc 47 2f be 3c cc 25 3e b8 4e 2d be ce 77 44 be
       -0.17117256 0.1619119 -0.1692456 -0.19186327
000370 a0 69 cf bc c4 73 25 3e 60 d2 ee bd 74 20 cf 3d
       -0.02531892 0.16157442 -0.116612196 0.10113612
000380 52 bf 6a 3e 60 50 8f bc 38 f9 39 3d ac 58 9e 3d
       0.22924545 -0.01749438 0.04540369 0.077317566
000390 b8 90 47 be 3c 29 f1 bd 18 9c 02 be d8 57 21 3e
       -0.194888 -0.11775443 -0.12754858 0.15756166
0003a0 c8 1d 48 be 80 36 0a bb 62 2b 62 3e 0e 9c 46 be
       -0.1954261 -0.0021089613 0.22086862 -0.19395468
0003b0 a4 85 82 bd d8 c5 66 bd 2c a3 ad 3d a2 cd 3c be
       -0.06373146 -0.056341022 0.08478388 -0.18437818
0003c0 a0 ad 5b 3c 02 1b 73 be 42 ce 2a 3e 74 34 ff 3d
       0.013408095 -0.23740771 0.16680244 0.124611765
0003d0 dc ff b2 3d 9c 2a b6 3d 3a 4a 00 3e 80 c6 56 3e
       0.087402076 0.08894846 0.12528315 0.20974159
0003e0 de 28 3d be a0 23 c9 3c 50 41 8d bc 44 f0 a2 3d
       -0.18472621 0.02455312 -0.017243057 0.07955983
0003f0 d8 51 52 3e 00 ff 84 3b 7c 03 2d be bc 95 bc bd
       0.20539033 0.0040587187 -0.1689586 -0.09208247

rnn.weight_hh_l0 f4 [16, 16]
000000 2a 0a 22 3e ec 4a 85 bd a4 84 c5 3d b8 99 87 bd
       0.1582419 -0.06508431 0.0964444 -0.066211164
000010 d0 51 b1 3d 62 c1 2d be 00 02 6e 3b 9a 02 09 be
       0.086581826 -0.16968301 0.003631711 -0.13379899
000020 80 16 a9 3b 08 e4 0d bd 48 36 02 be 52 1e 74 be
       0.005160153 -0.034641296 -0.12716019 -0.23839691
000030 a4 64 2e 3e 12 76 17 be 00 b1 dc 3a a0 3c 2e be
       0.17030579 -0.14791134 0.0016837418 -0.17015314
000040 bc 2a 15 be 58 d3 58 be 54 03 3c be f8 a2 ad 3d
       -0.14567083 -0.21174371 -0.18360645 0.084783494
000050 10 fb 55 bd 94 a0 1f 3e 14 97 d0 3d 38 98 75 bd
       -0.052241385 0.155886 0.10185066 -0.05995962
000060 b0 92 08 be 86 f9 2a 3e ee 91 6d 3e 2c 99 c8 bd
       -0.13337207 0.16696748 0.23200199 -0.0979484
000070 20 53 69 be 94 5a b6 bd 80 eb b1 bd e6 00 19 be
       -0.22785616 -0.08903995 -0.08687496 -0.14941749
000080 72 2c 02 3e c0 37 60 3d 8c 1b a5 bd e4 d0 bf 3d
       0.12712267 0.054740667 -0.08061895 0.093660146
000090 f0 21 e0 3d f8 83 5b 3d 80 26 26 bb 28 18 1f bd
       0.10943973 0.053592652 -0.0025352538 -0.038841397
0000a0 00 31 60 3c b4 b0 dc bd 0a 34 3e be ee fb 53 be
       0.0136835575 -0.10775891 -0.18574539 -0.20701572
0000b0 c8 aa 14 bd 4e ac 60 3e f4 3a e1 3d 50 a6 d9 bc
       -0.036295682 0.21940729 0.109975725 -0.026568562
0000c0 60 0c 87 bd e4 df 8f 3d 9c ec 69 3e a0 a3 2b 3d
       -0.06594157 0.070251256 0.22844166 0.04190409
0000d0 7c 2e be bd 70 da 72 3d c0 8f e8 3d a4 5c 1c be
       -0.0928621 0.05929035 0.11355543 -0.15269715
0000e0 d2 02 5b 3e c0 21 c8 bd 50 b4 1d 3d b8 3f 31 bd
       0.21387795 -0.09772062 0.038502038 -0.043273658
0000f0 00 e0 ae 39 f8 f8 f7 3d fc a5 ab 3d 72 7b 6c 3e
       0.0003335476 0.12108034 0.083812684 0.23093966
000100 48 a4 58 be 72 c6 37 3e 00 14 65 3c 00 48 da b9
       -0.21156418 0.17946795 0.013981819 -0.00041633844
000110 30 0b c4 3c 6a 6c 55 3e a8 90 6d bd e0 e2 59 be
       0.023931116 0.20842138 -0.057999283 -0.21277952
000120 84 71 63 3e 82 e8 01 3e e6 97 78 3e b4 e9 74 3e
       0.22211272 0.12686351 0.24276695 0.23917276
000130 80 91 60 be 30 af e5 3c 2a 72 3c be 70 c6 dc bc
       -0.21930504 0.028037637 -0.18402925 -0.026950091
000140 28 9a 4f be 08 b5 4e be d2 f2 32 3e 88 82 c0 bd
       -0.2027365 -0.20186245 0.17475441 -0.09399897
000150 a8 de 75 bd b0 db 62 be d8 b1 4d be 72 17 13 3e
       -0.060026795 -0.22154117 -0.20087373 0.14364412
000160 18 02 18 bd 90 08 c3 bc 9c 88 d2 3d 4c 69 94 bd
       -0.03711137 -0.023807794 0.102799624 -0.07246646
000170 34 8a 7b be 9e 2c 68 3e c0 71 a0 3b 10 dd 7e 3d
       -0.24564439 0.2267327 0.0048963726 0.06222254
000180 b4 58 72 3e 14 c4 ea 3d c8 00 9b 3d 20 79 cd bc
       0.2366665 0.1146318 0.075685084 -0.025082171
000190 c0 50 0c be b4 ac 1e 3e ae 91 00 3e 74 92 eb bd
       -0.13702679 0.15495569 0.12555572 -0.11502543
0001a0 f8 7b 92 bd 48 4a 52 3d c0 8b 95 3b 9a 20 10 be
       -0.071525514 0.05134037 0.0045637786 -0.14074937
0001b0 ee 5a 10 be 44 38 7e be 00 d6 76 3b 3c 6d f7 bd
       -0.14097187 -0.24826151 0.0037664175 -0.12081382
0001c0 38 dc 08 bd b0 ef 83 3c f0 8b dd bc 32 cc 2f be
       -0.033413142 0.016105503 -0.027044266 -0.17167738
0001d0 30 6a ee 3c 40 c0 d8 bb 8c 58 9d bd 88 da f9 3d
       0.029103369 -0.006614715 -0.076829046 0.12199885
0001e0 8a 08 39 3e b8 0d 1e 3e 84 99 92 3d 00 10 77 ba
       0.18069664 0.15434921 0.07158187 -0.00094246864
0001f0 ee a5 2d be bc 88 8b 3d 2e c7 3a 3e 7c a1 f3 3d
       -0.16957828 0.068131894 0.18240044 0.11896035
000200 c0 39 b9 bd 58 81 36 3d 82 6a 65 be 00 13 70 3d
       -0.09044218 0.044556946 -0.22403911 0.05861187
000210 a0 04 31 bc b0 2d bb 3c 38 e3 26 bd 20 78 09 bd
       -0.010804325 0.022848934 -0.040744036 -0.033561826
000220 5c 73 10 3e 58 15 7b bd a6 9c 2c 3e ae 38 2d 3e
       0.14106506 -0.06129965 0.16856632 0.16916153
000230 d8 bb 16 3d a0 44 34 be 88 3e 7d be 38 49 65 3e
       0.036800236 -0.17604303 -0.24730885 0.22391212
000240 e0 ea e5 3c 06 07 70 3e 76 7b 0c be 00 80 d3 3a
       0.028066099 0.23440179 -0.13718972 0.001613617
000250 64 75 6f be 54 7a df bd 70 db 6f bd 9c 7e 24 be
       -0.23384625 -0.10912004 -0.05855888 -0.16063923
000260 48 3a 56 be 00 10 3f 3a a0 e8 30 3e 60 b5 c4 3d
       -0.2092067 0.0007288456 0.1727624 0.09604907
000270 d8 62 9f bd f6 16 2c 3e d0 41 42 3d 40 79 54 be
       -0.07782525 0.16805634 0.047426045 -0.20749378
000280 a0 28 14 3e cc 22 f5 bd b4 b2 d6 3d 00 04 74 3a
       0.14468622 -0.119695276 0.10483304 0.00093084574
000290 a0 56 4e 3d 40 03 9c 3c 60 47 fa bc e0 f3 1e bc
       0.05037558 0.019044518 -0.030551612 -0.009701699
0002a0 8c 08 5c be d0 3d a8 bc c8 f7 17 be 40 62 d8 3c
       -0.21487635 -0.020537287 -0.14840615 0.026414037
0002b0 f6 79 5d be f0 16 cd 3d b0 fd 38 3d 40 d2 b1 bc
       -0.21628556 0.100141406 0.04516381 -0.0217067
0002c0 14 30 37 3e 72 5f 46 be 2c fe 93 bd 64 e8 de 3d
       0.17889434 -0.19372347 -0.07226214 0.10884169
0002d0 90 1c 81 3c 00 ef 7d bc 10 16 8c bc b8 0a 42 3d
       0.01576069 -0.015498877 -0.017100364 0.047373503
0002e0 68 36 29 be 40 8b 2a 3d 9c 21 ad bd 50 20 3d 3e
       -0.1652466 0.041636705 -0.08453676 0.18469357
0002f0 10 8a 3b bd 58 43 02 3e 58 f3 69 bd 30 b1 5c 3d
       -0.045785964 0.12721002 -0.057116836 0.053879917
000300 40 27 bf bb 2e ef 32 3e 88 d5 8d bd e4 fc 0d be
       -0.0058335364 0.17474052 -0.069254935 -0.13866001
000310 f4 dd 99 bd f6 cd 4b 3e d0 c9 9b 3c a8 a7 20 3d
       -0.07513037 0.19902787 0.01901713 0.03922239
000320 d8 25 66 3e 58 19 49 3e f6 9e 41 3e 10 8e 37 3e
       0.22475374 0.19638574 0.18908295 0.17925286
000330 64 91 a6 bd 24 95 c7 bd 18 6c a3 3d 6c 96 f3 3d
       -0.081332 -0.09745243 0.079796016 0.11893925
000340 10 96 92 bc 88 b6 4b 3d 88 54 84 3d 20 a0 7e bc
       -0.017893821 0.049734622 0.064614356 -0.015541106
000350 a8 99 07 3e 78 2b 7d be 70 cd 48 3e cc 93 d4 3d
       0.13242209 -0.24723613 0.19609618 0.103797525
000360 f0 b5 87 bc b2 ba 2e 3e 90 9b f5 bd 06 ee 38 3e
       -0.016566247 0.17063406 -0.11992562 0.18059549
000370 de ff 63 be 7c dc 3a 3e e8 d7 0d be a6 88 3f 3e
       -0.22265574 0.1824817 -0.13851893 0.18704471
000380 60 53 26 bc aa 70 1e 3e 86 03 24 3e bc 37 d0 3d
       -0.010151714 0.15472665 0.16016969 0.101668805
000390 04 e3 20 3e 9a cd 59 3e c0 ea 77 bd da 8e 3b be
       0.157116 0.21269837 -0.06052661 -0.18316212
0003a0 00 57 63 bc b8 58 e5 bd 18 13 05 3d 50 80 87 3d
       -0.013875723 -0.111985624 0.032488912 0.066162705
0003b0 4a 8c 29 be 98 b2 2c be 04 e3 c2 bd 20 77 b0 bd
       -0.16557422 -0.16865003 -0.09515956 -0.08616471
0003c0 14 3c f3 3d ac 5b 3b 3e 70 85 26 be 4e 79 7d be
       0.11876693 0.18296689 -0.1626184 -0.24753305
0003d0 90 37 7d 3e 20 ac 2f 3e 60 d2 a5 3c a0 01 79 be
       0.24728227 0.17155504 0.020241916 -0.24317026
0003e0 8c 05 f7 3d 10 f1 af 3c 84 4a fa bd 10 b0 81 3c
       0.12061605 0.021477252 -0.12221244 0.015831023
0003f0 d4 4f db 3d e6 06 32 be 80 9a 46 bc 90 6c a6 3c
       0.107085854 -0.17385444 -0.012121797 0.020315439

rnn.bias_ih_l0 f4 [16]
000000 a0 9a dd 3d 70 0c 59 bd c4 ae f4 bd 88 ce c2 3d
       0.10820508 -0.052990377 -0.119473964 0.09512049
000010 88 7d d7 3d 00 f8 a6 b9 ac df a3 bd 66 a1 1a 3e
       0.1052199 -0.00031846762 -0.080016464 0.15100631
000020 14 09 46 3e 90 f9 dc bc 90 16 f2 bc 00 b7 cd 3d
       0.193394 -0.02697447 -0.029551774 0.1004467
000030 9c 12 11 be f8 16 12 3e 20 93 86 3d c0 aa 5f 3c
       -0.14167255 0.14266574 0.065710306 0.01365155

rnn.bias_hh_l0 f4 [16]
000000 ac 8d 39 be 5a 76 31 be d6 e1 43 3e c8 32 2e be
       -0.1812045 -0.17330304 0.19129118 -0.17011559
000010 c0 14 a7 3b f0 af ee bc ea 9a 0b 3e 80 82 f1 bd
       0.005098909 -0.029136628 0.13633314 -0.11792469
000020 5e f4 44 3e e0 9d 09 bc 62 8a 0c be e8 d8 3c be
       0.19233844 -0.008399457 -0.13724664 -0.18442118
000030 b2 df 24 3e aa 2c 39 be e8 c0 22 3e 70 77 ba bc
       0.16100958 -0.18083444 0.158939 -0.02276203

fc.weight f4 [8, 16]
000000 40 ea d9 bb e0 ae be bc c0 5c d4 3c 80 a1 d7 bd
       -0.006650239 -0.023276746 0.025923133 -0.105288506
000010 30 8b 3e 3e d4 9a e3 bd f0 3b 40 be b0 07 c8 3c
       0.18607783 -0.111135155 -0.18772864 0.024417728
000020 40 d9 7c 3c 50 0c 0a be c4 63 e4 3d d2 59 68 3e
       0.015432656 -0.1348126 0.11151841 0.22690514
000030 f0 b2 cb bd 14 6f 64 be 26 28 09 be 38 31 1d 3e
       -0.09946239 -0.22307998 -0.13394222 0.15350807
000040 cc db 7f be 40 f6 d6 3d 2c f8 25 3e b4 32 ee 3d
       -0.2498619 0.10496187 0.16207951 0.116307646
000050 34 e7 40 be 20 0d 71 3d 8e f2 15 3e 2e 39 1d 3e
       -0.18838197 0.058850408 0.14643309 0.15353844
000060 3c 1e 33 be ee d0 5d 3e 4e dc 02 3e 94 ec 42 be
       -0.17492002 0.21661732 0.12779352 -0.1903556
000070 00 e6 12 3e 3a 9d 0e 3e d0 ee 15 3e 8c 12 99 3d
       0.1434555 0.13927165 0.14641881 0.07474241
000080 9c a6 df bd 20 df f9 bc 54 f4 33 3e a8 37 60 3e
       -0.1092045 -0.030501902 0.17573673 0.21896231
000090 e6 8c 51 3e 88 bf 19 bd 1c 1c 03 3e 48 01 59 3d
       0.20463905 -0.037536174 0.12803692 0.052979738
0000a0 3c 69 61 be 08 23 11 be 10 d6 92 bc 3e c0 33 be
       -0.220128 -0.1417352 -0.017924339 -0.17553803
0000b0 94 e0 04 3e 68 b3 f0 3d b0 02 5a 3e f0 ef 05 3d
       0.12976295 0.11752969 0.21290088 0.032699525
0000c0 00 6d b6 3b e4 ea 25 3e 74 57 d4 bd c0 e7 26 be
       0.005567193 0.16202885 -0.10368243 -0.16299343
0000d0 00 9e fb 3a 98 38 0f be c0 cc e5 3b 5a fc 16 3e
       0.0019196868 -0.13986433 0.0070129335 0.14744702
0000e0 c0 7d ec bb 10 20 01 be 40 7e 0a bc f8 cb fd 3d
       -0.007217139 -0.12609887 -0.008452952 0.123924196
0000f0 b6 a1 21 be 44 2f 2e 3e 24 ad 6a 3e fa e5 3f be
       -0.15784344 0.17010218 0.2291761 -0.18740073
000100 60 1a d2 bd 28 f1 50 bd bc e2 f8 bd 60 b9 ac 3d
       -0.10258937 -0.051011235 -0.12152621 0.08433795
000110 58 41 0e 3d e4 a7 5e be a4 0d 19 3e 2c 28 86 bd
       0.034730285 -0.21743733 0.1494661 -0.06550631
000120 cc f6 83 3d 60 d8 94 3c 80 b5 09 3c b4 e9 12 be
       0.06443557 0.018169582 0.008405089 -0.14346963
000130 b0 07 3b 3d 30 41 49 bd 00 48 39 ba 36 25 1f 3e
       0.04566163 -0.049134433 -0.0007067919 0.15541539
000140 00 ea be ba 00 60 ad bb c0 9c 21 3e f8 b3 67 3e
       -0.0014565587 -0.005290985 0.15782452 0.22627246
000150 c0 e0 cd 3d 28 0e 11 be f0 b8 7f 3d f0 35 05 3d
       0.10052633 -0.14165556 0.06243223 0.032522142
000160 30 88 4a 3d 60 b9 19 be 82 ca 2f be 14 ed ce 3d
       0.049446285 -0.15012121 -0.17167094 0.10103813
000170 a8 79 5e bd 74 e7 14 3e ac 45 9b bd 80 6e b1 3c
       -0.05431524 0.14541417 -0.07581648 0.021659136
000180 d0 a2 4b 3d aa d7 78 be 80 6a 16 3d ba fd 06 3e
       0.049715817 -0.2430102 0.03672266 0.13182727
000190 10 0b 43 bd 08 41 01 3d 04 3c 9e bd 3a 39 3b be
       -0.047617972 0.03155616 -0.07726291 -0.18283549
0001a0 20 ed 7c 3d ce ac 58 3e a6 a1 40 be 08 f4 5f 3e
       0.061749578 0.2115967 -0.18811664 0.21870434
0001b0 40 35 78 3d 2c 84 68 3e b8 f8 8a 3d f8 4f 44 3e
       0.06059766 0.2270667 0.067857206 0.1917113
0001c0 26 1c 21 be 18 ff 60 3d ea d7 36 be dc e9 25 be
       -0.15733394 0.054930776 -0.17855802 -0.16202492
0001d0 f0 36 56 be 78 84 2d be 88 67 4f be a4 a5 ea 3d
       -0.20919394 -0.16945064 -0.20254338 0.11457375
0001e0 e8 5c 85 bd f8 cd a4 3d 16 9c 60 be b4 4a 1e be
       -0.06511861 0.08047098 -0.21934542 -0.15458184
0001f0 98 e3 29 be 6c ea e8 bd f4 04 ae bd 28 f0 62 3d
       -0.16590726 -0.113728374 -0.084970385 0.055404812

fc.bias f4 [8]
000000 16 3b 19 be 90 1c b2 bc 48 51 da bd 6e eb 03 3e
       -0.14963946 -0.021742135 -0.106600344 0.12882778
000010 b2 4a 69 be a4 70 d8 3d 78 24 21 bd be 1a 32 be
       -0.227824 0.105683595 -0.03934142 -0.17393014
