practice_torch/tiny_lm.pth (torch, 6097 bytes, 7 tensors)

embed.weight f4 [8, 16]
-0.01722816 0.8456953 0.5655542 0.13111928 -0.553373 -0.7979312 -0.05815638 0.17806897
1.386196 1.3730445 -0.3411722 1.053809 -0.11811549 -0.12805514 -0.17232747 -0.012204446
-0.875303 0.26869512 -0.98487836 -0.19237901 1.0932555 0.5682025 -1.081797 0.11649902
-0.6119844 -0.42981306 0.7251896 0.23171079 1.0588541 1.2483644 0.07434277 0.6725504
-2.6723733 -0.6032127 1.7321334 -0.26965383 2.0379837 1.7893639 -0.5911449 1.6323315
0.17922413 -0.6812678 -0.518625 -0.122026145 -0.37423852 -0.0045013656 -0.06856452 -0.0914017
-0.4034964 0.4961657 -1.7164322 -0.7545998 0.7940711 -1.3414226 0.03341802 0.5793941
1.6406969 -0.66921085 -0.03488725 0.5026748 0.80271304 0.365819 0.06760684 -0.40777284
1.8112528 1.4831059 -0.07816719 0.14464788 -1.754981 0.9868338 -0.7015736 1.758734
0.25183433 -0.49259168 0.20035474 0.5292106 -0.53642863 -1.7779473 0.49691808 1.1421713
0.6804134 0.11202311 1.4076679 0.25633806 0.42881632 0.963982 0.06365479 0.5487417
0.3944288 -0.15007134 -0.65274036 1.2713827 -1.3850617 -0.34489787 0.7158762 1.3157575
-0.83036315 1.272525 -0.6371703 0.106380016 2.6843932 0.6236113 -0.5052234 -2.0114782
0.645816 -1.6913587 1.0740536 -0.32088742 0.48947716 -1.1140783 0.7556362 -0.95743513
-0.33799773 -0.60518265 0.41297206 -0.33123937 -1.5880928 0.5182886 0.8494522 0.75536996
-0.2886905 -1.5030928 0.4522619 1.0818053 -0.40020055 -1.703028 -0.6707465 -0.015192144
00000000: 1222 8dbc 7d7f 583f 29c8 103f 2244 063e
00000010: daa9 0dbf 3845 4cbf 6235 6ebd b657 363e
00000020: df6e b13f ecbf af3f 1fae aebe 37e3 863f
00000030: 89e6 f1bd e320 03be 9d76 30be 28f5 47bc
00000040: db13 60bf 6892 893e fd20 7cbf 01ff 44be
00000050: ccef 8b3f b875 113f 5378 8abf 0a97 ee3d
00000060: 02ab 1cbf 7510 dcbe 07a6 393f 9845 6d3e
00000070: 8888 873f 68ca 9f3f 0641 983d 432c 2c3f
00000080: 2a08 2bc0 266c 1abf 8cb6 dd3f 1110 8abe
00000090: 536e 0240 e009 e53f 4655 17bf 3df0 d03f
000000a0: 8886 373e 9167 2ebf 9cc4 04bf d8e8 f9bd
000000b0: 319c bfbe 3180 93bb 8e6b 8cbd d130 bbbd
000000c0: 1597 cebe 6e09 fe3e 0db4 dbbf 742d 41bf
000000d0: 3e48 4b3f bcb3 abbf 55e1 083d 2c53 143f
000000e0: 5b02 d23f 6751 2bbf efe5 0ebd 4caf 003f
000000f0: 9a7e 4d3f a14c bb3e 7475 8a3d 9ac7 d0be
00000100: 22d7 e73f 6ad6 bd3f 1f16 a0bd 931e 143e
00000110: 38a3 e0bf 24a1 7c3f 549a 33bf 321e e13f
00000120: 6ef0 803e fa34 fcbe cb29 4d3e 597a 073f
00000130: 6353 09bf c793 e3bf 0c6c fe3e ab32 923f
00000140: 932f 2e3f 5f6c e53d 762e b43f be3e 833e
00000150: d08d db3e 86c7 763f 715d 823d 567a 0c3f
00000160: 92f2 c93e 4dac 19be fe19 27bf abbc a23f
00000170: b449 b1bf 7496 b0be aa43 373f be6a a83f
00000180: ae92 54bf 19e2 a23f 981d 23bf c4dd d93d
00000190: 19cd 2b40 fda4 1f3f 5256 01bf 0fbc 00c0
000001a0: 3354 253f 717e d8bf 977a 893f 5b4b a4be
000001b0: c09c fa3e 1e9a 8ebf 6071 413f 781a 75bf
000001c0: 0a0e adbe 40ed 1abf 1371 d33e 3598 a9be
000001d0: a046 cbbf 90ae 043f b375 593f ed5f 413f
000001e0: 3ecf 93be 5865 c0bf df8e e73e 9978 8a3f
000001f0: 16e7 ccbe d2fc d9bf 0bb6 2bbf 78e8 78bc

rnn.weight_ih_l0 f4 [16, 16]
-0.038785577 -0.15059435 -0.058876634 -0.0026831925 -0.015019536 0.21614683 0.017258435 -0.24106866
-0.16826996 0.15306294 -0.08927971 -0.17190403 -0.12094805 0.04695034 -0.02763936 -0.22524408
-0.004042357 -0.10723767 -0.045366555 -0.19347695 -0.08428326 0.034871876 0.11161971 -0.12945843
-0.18991077 0.16792884 0.18424055 -0.023650646 0.08867636 0.24837273 0.16850448 -0.003341347
-0.22746015 -0.16257286 -0.20232326 -0.1581079 0.20292044 0.09735912 -0.029635489 -0.008421481
0.17912424 -0.008734763 -0.12647149 0.0020394325 0.050493866 -0.22336298 -0.0122226775 0.20471951
0.19601667 0.07033837 0.15674475 -0.122284144 -0.04252276 -0.23802558 -0.16708231 -0.035390973
-0.15018165 0.17336342 0.1951482 0.090565056 0.002019316 -0.23155025 -0.024234027 -0.00763461
0.21391475 -0.2466039 -0.16355929 0.10486403 0.17474568 -0.050854146 0.2204695 -0.17422384
0.13379887 -0.070123434 -0.12149656 -0.20918319 -0.16602486 -0.095323324 0.09410867 -0.05988905
0.2388981 -0.010837913 0.13872358 -0.16015497 0.061709017 -0.19326448 0.19393697 -0.0085268915
-0.20677188 -0.090479314 -0.18704179 0.24552941 0.12326449 -0.20663944 -0.07640156 0.11331174
-0.097513735 0.24813536 0.11791098 0.2232655 -0.11948216 -0.20859054 0.12533906 0.106678605
-0.15193999 0.123841286 -0.13398531 0.0715715 -0.112010986 0.18429038 -0.05494404 -0.1099588
0.12061584 -0.14757475 0.10233408 0.09855026 0.24506587 0.04611796 0.18379143 -0.12253207
0.2087887 -0.24467626 -0.06319022 0.2207258 -0.09284487 0.033564538 -0.08719668 0.1974765
-0.10173088 0.18864691 -0.17651692 0.22414619 0.2083492 0.12152788 0.07760322 0.05872342
0.16833586 0.1377205 -0.1861068 0.03670293 -0.18091473 -0.022530884 -0.11281389 0.0050258934
-0.106603324 0.036348224 -0.1901229 0.0048423707 -0.16855991 -0.005726576 0.028628796 0.004498124
0.18689424 -0.070393115 -0.14659584 -0.08310068 0.20607755 0.17078301 0.14190564 0.0022735596
0.21900111 0.23841035 0.054231286 -0.20597917 0.0986886 0.17946741 0.039753437 -0.21099246
0.09938991 0.14750239 -0.14070612 -0.23377848 -0.048104078 0.063623846 -0.18470731 -0.1775231
0.23409939 0.087102264 0.24240774 -0.07770747 0.22661483 0.15477851 0.17985535 -0.19178098
-0.13924402 -0.086309195 -0.04396382 0.22344095 -0.15858635 -0.1013791 0.0953168 -0.008357376
0.23705965 -0.15940106 0.13955674 -0.13574329 0.1310386 -0.2400459 -0.17265925 0.18859762
-0.14843696 0.12970501 -0.023665488 0.21411377 0.12278187 0.106132984 0.09437412 0.11392486
-0.09806034 -0.07564926 0.112722844 0.17906728 0.15582928 -0.17827943 -0.15070209 0.1334053
0.09836733 -0.20730424 -0.14744285 -0.07243979 0.23584548 0.18911725 0.070172936 -0.07359108
-0.06950116 0.13163674 0.22660756 -0.05695373 0.072006226 0.17702425 0.147351 0.1562677
0.076236695 0.018551797 0.12580225 -0.12655747 -0.14530435 0.105054736 -0.23705173 -0.0017849505
0.087190986 -0.23183161 -0.21774977 -0.043546498 -0.12830979 0.18693003 -0.20338222 -0.03953013
0.006973386 -0.13942745 -0.20037338 -0.22508126 -0.043234438 -0.12691444 0.18000618 0.16150376
00000000: a0dd 1ebd 6835 1abe a028 71bd 80d8 2fbb
00000010: 8014 76bc 9855 5d3e 9061 8d3c b4da 76be
00000020: f64e 2cbe 88bc 1c3e 48d8 b6bd 9c07 30be
00000030: 9cb3 f7bd 004f 403d f06b e2bc 62a6 66be
00000040: c075 84bb 6c9f dbbd 48d2 39bd d21e 46be
00000050: b49c acbd d0d5 0e3d e098 e43d c090 04be
00000060: f877 42be 8af5 2b3e 8ea9 3c3e 00bf c1bc
00000070: f49b b53d 6c55 7e3e 708c 2c3e 80fa 5abb
00000080: 50eb 68be 8079 26be d42d 4fbe 0ae7 21be
00000090: 60ca 4f3e 3864 c73d 20c6 f2bc 40fa 09bc
000000a0: 586c 373e 401c 0fbc be81 01be 00a8 053b
000000b0: a8d2 4e3d 44b9 64be a041 48bc fea1 513e
000000c0: 98b8 483e 900d 903d b281 203e 1c70 fabd
000000d0: 582c 2ebd fabc 73be a017 2bbe 20f6 10bd
000000e0: 38c9 19be 2e86 313e eed4 473e 2c7a b93d
000000f0: 8056 043b 821b 6dbe 7086 c6bc c02b fabb
00000100: 780c 5b3e bc85 7cbe 167c 27be f4c2 d63d
00000110: 88f0 323e 704c 50bd c2c2 613e bc67 32be
00000120: 9202 093e e09c 8fbd 30d3 f8bd 1e34 56be
00000130: 6c02 2abe e038 c3bd 0cbc c03d 384e 75bd
00000140: b4a1 743e 8091 31bc 8e0d 0e3e aaff 23be
00000150: 98c2 7c3d 20e7 45be 6a97 463e 60b4 0bbc
00000160: 02bc 53be 384d b9bd e287 3fbe 106c 7b3e
00000170: 1872 fc3d 4a99 53be 6c78 9cbd fc0f e83d
00000180: 48b5 c7bd 3217 7e3e 507b f13d b69f 643e
00000190: 10b3 f4bd c298 55be e258 003e 507a da3d
000001a0: 2896 1bbe 80a0 fd3d 7233 09be 1494 923d
000001b0: 0466 e5bd 9eb6 3c3e 000d 61bd 1432 e1bd
000001c0: 7005 f73d d61d 17be 8894 d13d b8d4 c93d
000001d0: 8cf2 7a3e 30e6 3c3d d233 3c3e 18f2 fabd
000001e0: b4cc 553e 6a8c 7abe e069 81bd f205 623e
000001f0: 7425 bebd f87a 093d 2c94 b2bd 4837 4a3e
00000200: 4858 d0bd a82c 413e dac0 34be 9486 653e
00000210: 7e59 553e 9ce3 f83d 70ee 9e3d f887 703d
00000220: 3c60 2c3e 9a06 0d3e c892 3ebe d055 163d
00000230: b641 39be b092 b8bc f80a e7bd 40b0 a43b
00000240: d852 dabd e0e1 143d 94af 42be c0ac 9e3b
00000250: f89a 2cbe 00a6 bbbb f086 ea3c 0065 933b
00000260: 3461 3f3e 442a 90bd 381d 16be b030 aabd
00000270: fe05 533e bee1 2e3e b64f 113e 0000 153b
00000280: d441 603e d821 743e a021 5e3d 34ec 52be
00000290: 401d ca3d 4ec6 373e 80d4 223d 680e 58be
000002a0: f08c cb3d de0a 173e 4415 10be a063 6fbe
000002b0: c808 45bd 384d 823d ea23 3dbe 9ec8 35be
000002c0: c0b7 6f3e ac62 b23d bc39 783e 1825 9fbd
000002d0: b80d 683e 427e 1e3e 002c 383e 3c62 44be
000002e0: fc95 0ebe e0c2 b0bd 6813 34bd b4cd 643e
000002f0: 7664 22be d89f cfbd 7435 c33d 60ed 08bc
00000300: c4bf 723e 083a 23be f6e7 0e3e 4a00 0bbe
00000310: fc2e 063e 98ce 75be 96cd 30be bc1f 413e
00000320: dcff 17be 64d1 043e 20de c1bc a440 5b3e
00000330: 1075 fb3d 405c d93d 3847 c13d 7051 e93d
00000340: dcd3 c8bd 00ee 9abd 3cdb e63d 6a5d 373e
00000350: b691 1f3e e28e 36be a651 1abe 669b 083e
00000360: d074 c93d 9047 54be 42fb 16be 505b 94bd
00000370: 7a81 713e f4a7 413e d4b6 8f3d ecb6 96bd
00000380: a056 8ebd c8cb 063e d00b 683e 5048 69bd
00000390: 0078 933d d845 353e 2ee3 163e a404 203e
000003a0: fc21 9c3d f0f9 973c 4ed2 003e 4898 01be
000003b0: aaca 14be f026 d73d b0bd 72be 00f5 e9ba
000003c0: 3091 b23d 4465 6dbe ccf9 5ebe d05d 32bd
000003d0: a463 03be 966a 3f3e 6e43 50be 58ea 21bd
000003e0: 0081 e43b 12c6 0ebe ae2e 4dbe b47b 66be
000003f0: 9816 31bd dcf5 01be 8a53 383e 3e61 253e

rnn.weight_hh_l0 f4 [16, 16]
-0.120207995 0.013498604 -0.17419198 0.017315894 0.04614964 0.16733158 0.123107314 -0.10744041
-0.022709489 0.24609748 0.0937759 -0.117972255 -0.038274735 -0.2287432 -0.08242923 0.0024477541
-0.15560016 0.1630756 0.12835363 0.15987486 -0.23240992 -0.13887414 0.03690973 -0.04768586
0.07922283 0.16622171 -0.18074256 0.18649778 -0.112653434 0.15624285 0.010955483 -0.14230528
0.23262712 0.16921473 0.054508686 -0.20171103 0.16956005 0.027434975 0.01938662 -0.11764288
0.2180644 -0.10456523 0.06431696 -0.20740545 0.006523758 -0.1426251 0.028629482 -0.13141003
0.22777978 0.04412788 0.05572802 -0.13410097 -0.24029854 -0.11323926 0.07283965 0.030302048
0.13432544 -0.19401875 0.20250905 0.06855467 -0.21503165 0.12321073 -0.24793088 0.00033974648
-0.14809471 -0.02210334 0.04810369 -0.09111923 -0.15235147 0.24546075 0.12057549 -0.20371842
-0.0573394 -0.14208633 0.11466402 -0.17047283 0.1347068 0.13652357 0.16225326 0.09493902
0.038092673 -0.21250328 0.14704841 -0.22059104 0.21571541 0.08386651 0.19483149 -0.003446877
0.040058166 -0.10910076 -0.19814646 0.22821426 -0.22364339 -0.1845487 0.08775452 0.16833785
0.19298586 -0.016059041 -0.09929848 0.12850165 0.16278458 -0.13357484 0.10722965 -0.2463164
-0.1944116 -0.23981777 0.12242487 0.09862375 -0.04962486 -0.011293471 -0.15458044 0.0745804
-0.16976833 0.17997769 -0.1160599 0.19688857 0.035339236 0.14165151 0.16801652 0.12778583
0.06774074 -0.09010407 0.17042658 -0.06669596 -0.00365901 -0.24517867 -0.06542808 -0.0022719204
0.1545923 -0.07592267 0.050727338 0.1866309 -0.10906172 0.039193004 0.19917566 0.034766585
0.18877369 -0.24176288 -0.18777978 0.014514357 -0.017730206 -0.14069569 0.04253027 0.09742391
0.03241408 -0.124044985 0.13806748 0.12589923 -0.03656313 -0.09686893 -0.24489081 0.22101894
0.057824492 0.025950968 0.048310578 0.020739585 -0.12805092 -0.21195632 0.001980126 0.017893255
0.015575826 -0.1183818 -0.08732951 0.12967768 0.019670188 -0.032689303 -0.12108269 0.06818718
-0.05923298 0.029806346 -0.1509549 0.09064081 0.23807979 0.1457076 0.21638781 0.016562581
0.2308158 0.23542383 -0.17339313 -0.2162809 0.14212173 -0.16773266 0.17540443 -0.059954345
0.20232984 -0.010580212 -0.17222792 -0.15325227 0.15080357 0.24316943 0.14358705 0.00022748113
-0.24533808 0.00692302 -0.20278394 -0.08617312 0.17607984 0.20905086 0.062015176 0.100243926
-0.20310777 -0.18838334 -0.038085967 -0.01583013 -0.21993941 0.02613926 -0.09009111 -0.08354381
-0.06476888 -0.17431638 0.03781557 0.18012553 0.068923354 0.0497272 -0.15632349 0.049746275
-0.24759924 -0.011050552 0.06361139 -0.10450414 -0.025385559 -0.054159194 -0.2087555 -0.1070652
-0.22790998 0.02663213 -0.19900432 0.14555198 0.052700847 0.22413722 -0.097708106 0.12503985
0.23457792 0.23150423 -0.2428219 0.18918127 -0.226085 -0.19259635 0.18262485 -0.16059941
0.046630323 0.15896934 -0.16374844 0.066809475 -0.201837 0.20844725 0.0816789 -0.1699264
-0.030201286 -0.09128383 0.063301414 0.08735469 -0.18391874 -0.12923071 -0.018787354 0.09535265
00000000: 9c2f f6bd 4029 5d3c 625f 32be 10da 8d3c
00000010: 6807 3d3d f858 2b3e b01f fc3d b809 dcbd
00000020: 4009 babc fa00 7c3e 940d c03d 709b f1bd
00000030: f8c5 1cbd a83b 6abe a8d0 a8bd 806a 203b
00000040: a655 1fbe 4afd 263e 226f 033e 3cb6 233e
00000050: defc 6dbe 0635 0ebe a82e 173d 4052 43bd
00000060: 943f a23d 0636 2a3e 9414 39be 46f9 3e3e
00000070: d8b6 e6bd 20fe 1f3e a07e 333c 7ab8 11be
00000080: ce35 6e3e a046 2d3e 8044 5f3d 568d 4ebe
00000090: 26a1 2d3e 50bf e03c b0d0 9e3c c0ee f0bd
000000a0: 464c 5f3e 4c26 d6bd 9cb8 833d 1862 54be
000000b0: 40c5 d53b 500c 12be 6088 ea3c 5a90 06be
000000c0: 1a3f 693e 70bf 343d 1043 643d c451 09be
000000d0: d210 76be fce9 e7bd f42c 953d 003c f83c
000000e0: 9c8c 093e daac 46be 885e 4f3e 6466 8c3d
000000f0: 4231 5cbe e855 fc3d 98e1 7dbe 0020 b239
00000100: 24a6 17be 1012 b5bc 6008 453d b89c babd
00000110: 0602 1cbe 105a 7b3e 48f0 f63d 909b 50be
00000120: b8dc 6abd 147f 11be f8d4 ea3d 6e90 2ebe
00000130: 94f0 093e d6cc 0b3e b825 263e 646f c23d
00000140: 1007 1c3d 769a 59be dc93 163e 9ee2 61be
00000150: 80e4 5c3e 34c2 ab3d e881 473e 00e5 61bb
00000160: 0814 243d 3870 dfbd e8e6 4abe 00b1 693e
00000170: c602 65be 56fa 3cbe a4b8 b33d c260 2c3e
00000180: 169e 453e 408e 83bc 005d cbbd f095 033e
00000190: 00b1 263e d8c7 08be 389b db3d 5e3a 7cbe
000001a0: d613 47be ca92 75be e4b9 fa3d 40fb c93d
000001b0: 7043 4bbd 4008 39bc 564a 1ebe 9cbd 983d
000001c0: c0d7 2dbe 124c 383e d0b0 edbd 289d 493e
000001d0: e0bf 103d 180d 113e 860c 2c3e 4ada 023e
000001e0: a8bb 8a3d 7c88 b8bd 4e84 2e3e e497 88bd
000001f0: 00cc 6fbb 1e10 7bbe 28ff 85bd 80e4 14bb
00000200: 724d 1e3e 587d 9bbd 78c7 4f3d 2c1c 3f3e
00000210: c05b dfbd d888 203d b4f4 4b3e 6867 0e3d
00000220: e44d 413e b090 77be 5849 40be a0cd 6d3c
00000230: f03e 91bc 8812 10be 3834 2e3d 3086 c73d
00000240: a0c4 043d 4c0b febd 9061 0d3e baeb 003e
00000250: 38c3 15bd 3863 c6bd a8c4 7abe ca52 623e
00000260: 60d9 6c3d 2097 d43c 50e1 453d 10e6 a93c
00000270: c81f 03be 140b 59be 00c5 013b e094 923c
00000280: c031 7f3c 2872 f2bd d0d9 b2bd 3aca 043e
00000290: 6023 a13c 38e5 05bd 34fa f7bd b8a5 8b3d
000002a0: 489e 72bd 702c f43c ec93 1abe e4a1 b93d
000002b0: 30cb 733e 6034 153e c494 5d3e 40ae 873c
000002c0: fa5a 6c3e f212 713e f88d 31be be78 5dbe
000002d0: 5c88 113e 1cc2 2bbe 389d 333e b092 75bd
000002e0: 8e2f 4f3e a058 2dbc 845c 30be 2aee 1cbe
000002f0: 406c 1a3e 6801 793e 7c08 133e 0088 6e39
00000300: e839 7bbe 80da e23b 98a6 4fbe 887b b0bd
00000310: 464e 343e 6e11 563e a003 7e3d b04c cd3d
00000320: 7cfb 4fbe 90e7 40be 0800 1cbd 30ae 81bc
00000330: cc37 61be 0022 d63c b081 b8bd 0419 abbd
00000340: 8ca5 84bd fe7f 32be 80e4 1a3d d472 383e
00000350: b027 8d3d c0ae 4b3d 4413 20be c0c2 4b3d
00000360: a88a 7dbe 600d 35bc b046 823d 4406 d6bd
00000370: 60f5 cfbc 08d6 5dbd 00c4 55be 0045 dbbd
00000380: 3c61 69be a02b da3c cac7 4bbe 940b 153e
00000390: d8dc 573d 3a84 653e 301b c8bd 720a 003e
000003a0: 3235 703e 720f 6d3e 4ea6 78be bcb8 413e
000003b0: d482 67be fa37 45be 0202 3b3e 2c74 24be
000003c0: 70ff 3e3d dcc8 223e acad 27be 68d3 883d
000003d0: 5cae 4ebe 3273 553e 4447 a73d 3001 2ebe
000003e0: b068 f7bc 04f3 babd 2ca4 813d 04e7 b23d
000003f0: 3255 3cbe 0e55 04be f0e7 99bc 4048 c33d

rnn.bias_ih_l0 f4 [16]
-0.10234812 -0.0071874857 0.21301869 -0.023979157 -0.16389701 -0.015476257 0.16667071 -0.018609852
-0.20665205 0.24563828 0.13334656 -0.1383309 0.18463746 0.12836418 0.17638874 0.06827083
00000000: e49b d1bd 0085 ebbb 9221 5a3e f06f c4bc
00000010: 9ed4 27be 2090 7dbc baab 2a3e b073 98bc
00000020: 989c 53be 9a88 7b3e 008c 083e 9ea6 0dbe
00000030: 9a11 3d3e e671 033e 409f 343e 94d1 8b3d

rnn.bias_hh_l0 f4 [16]
-0.23442447 -0.20500189 0.10101986 -0.06724149 -0.0014525354 0.07064688 -0.24969724 -0.22664306
0.039349765 -0.16833484 0.12551478 -0.04279843 -0.08545211 -0.21615165 0.08705178 0.18461382
00000000: f80c 70be 04ec 51be 80e3 ce3d e8b5 89bd
00000010: 0063 beba 50af 903d a2b0 7fbe 1e15 68be
00000020: 382d 213d f85f 2cbe f286 003e 684d 2fbd
00000030: 8401 afbd dc56 5dbe 3448 b23d 680b 3d3e

fc.weight f4 [8, 16]
0.107548386 0.24332824 -0.15532154 0.17146379 0.012506306 -0.006570101 0.19970074 0.041897774
-0.03550893 0.2426779 -0.016359538 -0.17853531 0.21104431 -0.034937084 -0.1475124 0.057026863
-0.18840656 0.04621756 0.057516396 0.18920362 -0.17806551 -0.12654093 0.19627166 0.12815252
-0.09809661 0.13143271 0.22567162 -0.05859235 0.0102647245 -0.10835269 -0.15398037 -0.060170203
0.056763798 0.06592798 0.09076297 -0.12499562 -0.0034931004 0.21639702 0.19003019 0.08984047
-0.09391895 0.054587483 -0.13321513 -0.008514971 0.14645979 -0.24987301 -0.11463264 -0.17944169
-0.06830609 0.013473004 -0.14654833 0.050928116 -0.07509154 -0.19516617 -0.11363968 -0.012119621
0.1770998 0.17006308 0.09863731 -0.010414839 0.0043646097 -0.10331631 0.024056077 -0.005901605
-0.113863945 0.14615208 0.24596256 -0.13918334 0.046851486 0.18073422 0.025939375 0.20834082
-0.07541031 0.18149999 0.083827764 -0.19553232 0.12359837 0.17997518 0.061755776 0.01566732
0.08763105 -0.21931022 0.11970657 -0.09130061 0.17116052 -0.10298541 0.022408366 -0.19734564
0.13192567 -0.046571672 0.06917682 -0.22771156 0.058469653 0.108038396 -0.16075474 -0.0008995831
-0.01752767 -0.15956047 0.0752784 0.1965386 -0.056290865 -0.029347926 -0.13574609 -0.04794085
-0.19500864 -0.19340262 -0.21894711 0.17251068 -0.045570552 0.24898595 -0.184149 -0.16704556
0.048968554 -0.09154856 0.03829366 0.0204539 -0.04293692 0.22034243 0.0951238 -0.08081302
-0.19849804 -0.23551762 -0.2299585 0.15114558 0.18531576 -0.2184752 -0.08039045 -0.20761952
00000000: 5442 dc3d 0a2b 793e 9c0c 1fbe 3494 2f3e
00000010: 40e7 4c3c 004a d7bb 5a7e 4c3e 009d 2b3d
00000020: d071 11bd 8e80 783e 7004 86bc f6d1 36be
00000030: 001c 583e 301a 0fbd 7e0d 17be 0095 693d
00000040: a6ed 40be a04e 3d3d 5096 6b3d 98be 413e
00000050: ce56 36be f293 01be 70fb 483e 6a3a 033e
00000060: e0e6 c8bd 4c96 063e 7616 673e 88fe 6fbd
00000070: 602d 283c 04e8 ddbd 08ad 1dbe 0875 76bd
00000080: 2881 683d 4005 873d f0e1 b93d b4fd ffbd
00000090: 80ec 64bb 2e97 5d3e 4697 423e 48fe b73d
000000a0: 9458 c0bd 2097 5f3d 8c69 08be 6082 0bbc
000000b0: 8ef9 153e b6de 7fbe 84c4 eabd 90bf 37be
000000c0: 10e4 8bbd e0bd 5c3c c410 16be 009a 503d
000000d0: 98c9 99bd a4d9 47be ecbb e8bd 6091 46bc
000000e0: a659 353e 0425 2e3e 5c02 ca3d 00a3 2abc
000000f0: 0005 8f3b 8097 d3bd 4011 c53c 4062 c1bb
00000100: 8031 e9bd e4a8 153e 9cdd 7b3e 1486 0ebe
00000110: 58e7 3f3d 6412 393e d07e d43c 4c57 553e
00000120: b870 9abd 22db 393e e4ad ab3d a039 48be
00000130: 2421 fd3d 6a4b 383e a0f3 7c3d c058 803c
00000140: e877 b33d dc92 60be b828 f53d d0fb babd
00000150: b444 2f3e 04ea d2bd c091 b73c fa14 4abe
00000160: 8617 073e f0c1 3ebd 94ac 8d3d 382d 69be
00000170: e07d 6f3d 3c43 dd3d e49c 24be 00d2 6bba
00000180: 3096 8fbc d263 23be 902b 9a3d 6a41 493e
00000190: 4091 66bd 106b f0bc 0601 0bbe a05d 44bd
000001a0: 58b0 47be 560b 46be ac33 60be a4a6 303e
000001b0: 30a8 3abd 2cf6 7e3e 8e91 3cbe fe0d 2bbe
000001c0: 4093 483d d07d bbbd d0d9 1c3d f08e a73c
000001d0: a0de 2fbd 72a1 613e 44d0 c23d 4c81 a5bd
000001e0: 1243 4bbe 882b 71be 3e7a 6bbe e8c5 1a3e
000001f0: 6ac3 3d3e f6b7 5fbe c0a3 a4bd 369a 54be

fc.bias f4 [8]
0.015478492 -0.18628448 0.036406547 -0.03484726 0.18239942 0.17416647 -0.24186254 -0.028028578
00000000: 8099 7d3c 5cc1 3ebe 081f 153d 00bc 0ebd
00000010: eac6 3a3e b258 323e d0aa 77be 309c e5bc
